…
BatchNormalization()(y) out2 = layers.Dense(107-16, activation = &#39;softmax&#39;, name = &#39;out2&#39;)(y) model_2conv_two_out = Model(inp, [out1, out2]) . tf.keras.utils.plot_model(model_2conv_two_out, show_shapes=True, show_dtype=True) . model_2conv_two_out.summary() . Model: &#34;model&#34; __________________________________________________________________________________________________ Layer (type) Output Shape Param # Connected to ================================================================================================== input_2 (InputLayer) [(32, 500, 256)] 0 [] lstm_1 (LSTM) (32, 200) 365600 [&#39;input_2[0][0]&#39;] lstm_2 (LSTM) (32, 200) 365600 [&#39;input_2[0][0]&#39;] dropout_1 (Dropout) (32, 200) 0 [&#39;lstm_1[0][0]&#39;] dropout_2 (Dropout) (32, 200) 0 [&#39;lstm_2[0][0]&#39;] dense_2 (Dense) (32, 200) 40200 [&#39;dropout_1[0][0]&#39;] dense_3 (Dense) (32, 200) 40200 [&#39;dropout_2[0][0]&#39;] batch_normalization (BatchNorm (32, 200) 800 [&#39;dense_2[0][0]&#39;] alization) batch_normalization_1 (BatchNo (32, 200) 800 [&#39;dense_3[0][0]&#39;] rmalization) out1 (Dense) (32, 16) 3216 [&#39;batch_normalization[0][0]&#39;] out2 (Dense) (32, 91) 18291 [&#39;batch_normalization_1[0][0]&#39;] ================================================================================================== Total params: 834,707 Trainable params: 833,907 Non-trainable params: 800 __________________________________________________________________________________________________ . model_2conv_two_out.compile(optimizer=tf.keras.optimizers.Adam(learning_rate=0.005), 
…
.BatchNormalization()(y) out2 = layers.Dense(107-16, activation = &#39;softmax&#39;, name = &#39;out2&#39;)(y) model_convlstm = Model(inp, [out1, out2]) . tf.keras.utils.plot_model(model_convlstm , show_shapes=True, show_dtype=True) . model_convlstm.summary() . Model: &#34;model&#34; __________________________________________________________________________________________________ Layer (type) Output Shape Param # Connected to ================================================================================================== input_1 (InputLayer) [(8, 500, 256, 1)] 0 [] conv_lstm1d (ConvLSTM1D) (8, 107, 20) 252080 [&#39;input_1[0][0]&#39;] conv_lstm1d_1 (ConvLSTM1D) (8, 107, 20) 252080 [&#39;input_1[0][0]&#39;] dropout (Dropout) (8, 107, 20) 0 [&#39;conv_lstm1d[0][0]&#39;] dropout_1 (Dropout) (8, 107, 20) 0 [&#39;conv_lstm1d_1[0][0]&#39;] max_pooling1d (MaxPooling1D) (8, 53, 20) 0 [&#39;dropout[0][0]&#39;] max_pooling1d_2 (MaxPooling1D) (8, 53, 20) 0 [&#39;dropout_1[0][0]&#39;] conv1d (Conv1D) (8, 24, 30) 18030 [&#39;max_pooling1d[0][0]&#39;] conv1d_1 (Conv1D) (8, 24, 30) 18030 [&#39;max_pooling1d_2[0][0]&#39;] max_pooling1d_1 (MaxPooling1D) (8, 12, 30) 0 [&#39;conv1d[0][0]&#39;] max_pooling1d_3 (MaxPooling1D) (8, 12, 30) 0 [&#39;conv1d_1[0][0]&#39;] flatten (Flatten) (8, 360) 0 [&#39;max_pooling1d_1[0][0]&#39;] flatten_1 (Flatten) (8, 360) 0 [&#39;max_pooling1d_3[0][0]&#39;] dense (Dense) (8, 30) 10830 [&#39;flatten[0][0]&#39;] dense_1 (Dense) (8, 30) 10830 [&#39;flatten_1[0][0]&#39;] batch_normalization (BatchNorm (8, 30) 120 [&#39;dense[0][0]&#39;] alization) batch_normalization_1 (BatchNo (8, 30) 120 [&#39;dense_1[0][0]&#39;] rmalization) out1 (Dense) (8, 16) 496 [&#39;batch_normalization[0][0]&#39;] out2 (Dense) (8, 91) 2821 [&#39;batch_normalization_1[0][0]&#39;] ================================================================================================== Total params: 565,437 Trainable params: 565,317 Non-trainable params: 120 __________________________________________________________________________________________________ . model_convlstm.compile(optimizer=tf.keras.optimizers.Adam(learning_rate=0.003), loss=
…
rue label over multiple options), we will be using categorical cross entropy as our loss function, note the this is the reason why we have chose to use softmax as the activation function of our output layer. . model_2conv.compile(optimizer=tf.keras.optimizers.Adam(learning_rate=0.03), loss=tf.keras.losses.CategoricalCrossentropy(), metrics=[&#39;accuracy&#39;]) . model_2conv.summary() . Model: &#34;sequential&#34; _________________________________________________________________ Layer (type) Output Shape Param # ================================================================= conv2d (Conv2D) (32, 107, 201, 30) 1350030 max_pooling2d (MaxPooling2D (32, 53, 67, 30) 0 ) batch_normalization (BatchN (32, 53, 67, 30) 120 ormalization) conv2d_1 (Conv2D) (32, 39, 38, 15) 202515 max_pooling2d_1 (MaxPooling (32, 13, 13, 15) 0 2D) batch_normalization_1 (Batc (32, 13, 13, 15) 60 hNormalization) flatten (Flatten) (32, 2535) 0 dropout (Dropout) (32, 2535) 0 dense (Dense) (32, 200) 507200 dropout_1 (Dropout) (32, 200) 0 dense_1 (Dense) (32, 50) 10050 dropout_2 (Dropout) (32, 50) 0 dense_2 (Dense) (32, 16) 816 ================================================================= Total params: 2,070,791 Trainable params: 2,070,701 Non-trainable params: 90 _________________________________________________________________ . . Model training . Now that we have done the setup we can finally train our model . # f&quot;../models/baseline_checkpoint/{datetime.now().strftime(&#39;%Y%m%d_%H%M%S&#39;)}_{{epoch:02d}}_
…
